model/cycle.pth (torch, 54471 bytes, 9 tensors)

rnn.weight_ih_l0 f4 [128, 1]
000000 67 4e 9b 3b e9 bc aa 3d 90 d7 2b 3e 67 f0 e6 bc
       0.004739571 0.08336813 0.1678145 -0.028190805
000010 f8 ac 21 3e 6c 3e 9e 3d be 70 69 3e ae b4 81 bd
       0.15788639 0.0772675 0.22796914 -0.0633329
000020 34 54 f2 3d 71 72 aa 3d 29 81 5e 3e 8b 45 96 3b
       0.11832467 0.08322609 0.21728958 0.004585927
000030 95 11 c4 bd 92 0b cb 3d e2 19 01 3e f5 21 04 be
       -0.09573666 0.09914316 0.1260753 -0.12903579
000040 23 3f 16 3e 9b ea 07 3d ec 5f 68 3e 6d e1 9c 3d
       0.14672522 0.03318272 0.22692841 0.07660184
000050 99 54 3d 3d f5 12 b4 3c 56 f7 27 3e 2d 05 5a 3e
       0.046223257 0.021981696 0.16402945 0.21291037
000060 e6 6c a4 bd 84 30 a6 3d a3 bb fb bd 55 b1 3a 3e
       -0.08028583 0.08114722 -0.12291648 0.1823171
000070 b1 44 de bd 32 b5 2e 3e c3 55 ad 3d bb f8 1a 3e
       -0.108529456 0.17061308 0.084636234 0.15133946
000080 90 8a d1 3d 31 4a c8 3d 56 f8 45 3e a6 a9 1c bd
       0.10231507 0.09779776 0.19333014 -0.038247727
000090 4d d3 4d 3e c3 2e 70 bd d7 4a 47 3c 02 6e a9 3d
       0.20100136 -0.058638345 0.012163839 0.082729355
0000a0 43 8c df bc 2c 23 47 3c 97 da 76 bd 56 8c 09 3d
       -0.027288562 0.012154382 -0.060267057 0.0335811
0000b0 eb 35 27 3e f7 48 93 bd 5a 8d ee 3d dd cd 04 3e
       0.16329162 -0.07191651 0.116480544 0.12969156
0000c0 08 1d 86 3d bf 19 b6 bd e3 b7 c0 bd 01 3b 9f 3d
       0.06548506 -0.088916294 -0.094100736 0.07774926
0000d0 53 a2 19 3e 84 9e d5 bd 02 e3 31 be ca 01 ec 3d
       0.15003328 -0.10430625 -0.17371753 0.11523779
0000e0 ff 0f 6a bd 4c 2a 11 bd 34 bd e3 bd 09 f7 f0 3c
       -0.05714416 -0.035440728 -0.11120072 0.02941467
0000f0 95 3f 56 3e 78 77 be bd a8 24 3c 3e e5 ca 10 3e
       0.20922692 -0.093001306 0.18373358 0.14139898
000100 29 f1 45 be 4a 4b a0 bb 17 7b 31 3e 93 f1 63 3d
       -0.19330277 -0.0048917877 0.17332111 0.055650305
000110 52 2a 4f 3e cb e2 07 bd a8 88 53 be 9e 1e 04 3e
       0.20230988 -0.03317527 -0.20657599 0.12902305
000120 42 ed 1a be 78 b3 d5 bd 13 8a a2 bd 97 de f7 bd
       -0.15129569 -0.104346216 -0.07936492 -0.121030025
000130 a3 35 07 3d e4 ab be bd f7 25 1b 3a cc 28 25 3e
       0.033010136 -0.09310129 0.0005918438 0.16128844
000140 8e 98 55 be 8f 53 b9 bd ca 3c d8 3d e5 e2 be bd
       -0.20858976 -0.09049141 0.105584696 -0.093206204
000150 50 37 38 be 11 1f ba 3d 40 5e 9e 3d f2 7b 62 3e
       -0.1798985 0.09087957 0.077328205 0.22117594
000160 b2 cd 21 be 8a b6 c9 3d d9 4f b4 3d fc 80 fd 3c
       -0.15801123 0.0984927 0.08804292 0.030945294
000170 bd 53 8e bd 25 61 65 be 32 3e cc 3b 55 50 9c 3d
       -0.069495656 -0.22400339 0.006233 0.076325096
000180 9d 84 8d bc cd 7e b2 bd 08 e3 21 bd cf f0 ed 3d
       -0.017275149 -0.087155916 -0.039523154 0.11618196
000190 a3 f8 45 3e b1 23 be 3d c8 e4 41 3e b0 ba 86 3c
       0.19333129 0.09284151 0.1893493 0.016446441
0001a0 ff 05 e3 bd 37 05 78 3c 73 35 a2 bd da 17 dd 3d
       -0.11085128 0.015137962 -0.07920351 0.10795565
0001b0 b1 86 8a bd d5 de c7 bd 1c e7 b4 bd d4 10 96 bd
       -0.067639716 -0.09759299 -0.08833143 -0.073274285
0001c0 c3 71 5f 3e 34 39 c6 3c ad 91 4f 3d 81 b9 f7 3d
       0.2182074 0.024197198 0.050676037 0.12095929
0001d0 65 5d cd bd 1a b3 06 3e 4c 76 ca 3d c8 85 69 3e
       -0.10027579 0.1315426 0.098858446 0.2280494
0001e0 6b d3 49 3d 34 0c 2c 3e 5a 43 c3 3d 73 c2 06 3e
       0.04927389 0.1680153 0.09534331 0.13160114
0001f0 28 86 44 3e 3a 90 dc 3d ed 55 88 3d 8f 8e 34 3e
       0.19191802 0.107696965 0.06657014 0.17632507

rnn.weight_hh_l0 f4 [128, 32]
000000 04 7d 82 bd 58 f6 c1 3d b1 b5 2e 3e 7f 5f d6 bd
       -0.06371501 0.094708145 0.17061497 -0.10467433
000010 22 a1 22 3e 24 7b 56 be d0 cf 50 3d 23 8a c7 bd
       0.1588178 -0.20945412 0.050979435 -0.09743144
000020 16 a2 06 3e b7 62 29 bd 6c 33 40 3d 9e 9a 75 bd
       0.13147768 -0.041353907 0.04692404 -0.059961908
000030 51 a3 f4 3a b8 97 11 bc d8 d7 7a 3d c9 9d 55 bd
       0.0018664395 -0.00888627 0.061241 -0.05215243
000040 28 80 fa bd bc c0 7b be 52 e6 b9 3c ea 78 2b be
       -0.12231475 -0.24585241 0.022692833 -0.16745344
000050 bd 83 61 be d7 e1 32 bd 94 a7 a7 3d 71 d8 f7 3d
       -0.2202291 -0.04367241 0.0818626 0.1210183
000060 97 69 03 3d c6 0b 3f 3e f8 39 6b bd 65 b5 93 bd
       0.03208312 0.18656835 -0.05742833 -0.07212333
000070 97 77 80 3d 87 e4 07 be 2a b3 a8 bc ad 25 c2 bd
       0.0627281 -0.1327077 -0.020593245 -0.09479842
000080 76 09 27 bd 30 2c 02 be f5 a4 db 3d 6c 01 28 bd
       -0.040780507 -0.12712169 0.107248224 -0.04101698
000090 44 e3 e5 bd 73 9c e0 3c b2 a7 82 3d 4b 62 87 bd
       -0.11224988 0.02741835 0.063796416 -0.06610545
0000a0 b8 42 11 3e e5 2e 08 3d 3d 4e 94 3d 67 73 f8 bd
       0.14185607 0.033247847 0.07241485 -0.12131386
0000b0 b7 e7 09 3e b6 46 1c be 7d af 80 3d 70 35 47 3e
       0.13467298 -0.15261349 0.06283472 0.19453979
0000c0 19 3d 59 be 6d 5e 55 be 7c f1 59 3d 8b a0 a0 3c
       -0.21214713 -0.20836802 0.053208813 0.019607803
0000d0 84 4f c6 bd da ba bf bd 85 54 c7 bd 05 49 1f bd
       -0.09683135 -0.09361811 -0.09732918 -0.038887996
0000e0 ff c8 e6 3d cf 15 6d 3d 1f f1 0c bd 36 7d 88 3c
       0.11268806 0.057882126 -0.03440964 0.016661268
0000f0 6e 8a 23 3d 44 02 ab bc 16 b9 3f 3e 03 9c 75 bd
       0.03992694 -0.020875104 0.18722948 -0.059963237
000100 99 5c 6a be 4f bf fc bc 31 33 8b bd 64 17 ea bd
       -0.22886886 -0.030852942 -0.06796873 -0.11430243
000110 78 ec 92 3c 22 a7 80 bd f8 aa 01 be c7 8b 02 bd
       0.017935023 -0.06281878 -0.12662876 -0.031871583
000120 dc 74 ae bd 94 aa 49 bd e1 81 bd bd 73 9d 79 be
       -0.08518383 -0.04923494 -0.09253288 -0.24376468
000130 ad cb 40 bc 76 39 61 be 81 ef fc 3d e8 bc 04 3e
       -0.01176731 -0.21994576 0.12350369 0.12962687
000140 de f9 61 be b2 9c 91 bd 13 02 93 3d 53 37 30 be
       -0.22067973 -0.071099654 0.0717813 -0.17208605
000150 ef 1f 40 be 37 f4 b1 3d be 26 e2 3c c3 be 6d bd
       -0.18762182 0.086891584 0.027606364 -0.058043253
000160 2c d9 2e be 85 ce ae bc ee b3 24 be 08 1c 3d 3e
       -0.17075032 -0.02133871 -0.16084263 0.18467724
000170 34 ca 6c be 69 90 ca 3d 3c 2e 2f 3e c5 38 02 3d
       -0.2312401 0.09890825 0.17107481 0.03179242
000180 bd 16 70 3d b6 a3 d0 3d 23 d9 83 3d 62 5d 52 bd
       0.058615435 0.101874754 0.064379 -0.051358588
000190 0a 97 29 3e af c1 4f bd b5 97 7a bc ba 56 13 3e
       0.16561523 -0.05072182 -0.015294959 0.14388552
0001a0 70 b7 85 3d cd 0a d4 bc 16 0a 55 bd 5c da d9 bd
       0.065291286 -0.025884056 -0.05201157 -0.10637352
0001b0 0d b8 cc 3d 5a 32 4f bc 20 28 59 3e 71 1e 14 bd
       0.099960424 -0.012646282 0.21206713 -0.036161844
0001c0 ba af cb 3d a3 69 06 be 04 65 84 3b 44 91 bf 3d
       0.099456266 -0.13126235 0.0040403623 0.09353879
0001d0 48 4a 4f be 23 ce a5 3d 86 c4 fc bd 30 37 10 3e
       -0.2024318 0.08095958 -0.12342171 0.14083552
0001e0 9c af ac ba 3e fd 52 3e 38 2b cf 3d cb 4f 18 3e
       -0.0013174894 0.20604417 0.10115665 0.14874189
0001f0 b3 d9 58 be 80 76 21 be 1e 28 14 bd af 96 e2 3d
       -0.21176796 -0.1576786 -0.03617107 0.11063897
000200 0e 43 4f be 30 ce 52 3d 24 c5 d9 bd c0 5f 8b bd
       -0.20240423 0.051466167 -0.10633305 -0.06805372
000210 95 66 27 3c 92 95 33 be 6d 1b b6 bb 6c b1 46 bd
       0.010217329 -0.17537525 -0.0055574686 -0.048509046
000220 f6 d3 12 3d aa 33 48 bd d5 00 71 be f0 4e 19 be
       0.035846673 -0.048877396 -0.23535474 -0.14971519
000230 d4 cb 8a bd bb 7a 21 be 00 0b 95 bd b4 ce 26 3e
       -0.067771584 -0.15769474 -0.07277489 0.16289788
000240 26 3c bb 3d d4 80 18 be e2 ee 81 bd 29 28 26 be
       0.09142332 -0.14892894 -0.063443914 -0.16226257
000250 50 2e 9c 3d be f3 aa bc 20 8d 7b 3d f4 5b e8 3d
       0.07626021 -0.020868178 0.061413884 0.11345664
000260 23 b8 8b bd a0 f0 5a 3d 8a 7a 53 be 81 52 30 3c
       -0.06822231 0.053452134 -0.20652214 0.010761858
000270 fe 34 67 be bd f0 08 3d 06 5d bc bb 7e 7f 67 be
       -0.22578809 0.03343271 -0.005748394 -0.22607228
000280 65 c3 06 3e 48 b7 02 3e 48 8a e1 3d c2 52 81 3d
       0.13160475 0.12765229 0.11012703 0.06314613
000290 72 2f 1c be d9 b5 1c 3e fb 01 94 bd a2 63 0c be
       -0.15252474 0.15303744 -0.0722694 -0.13709882
0002a0 a1 db 32 3d 11 14 a4 3c da 79 ba 3c e0 c9 94 bd
       0.043666486 0.0200291 0.022763181 -0.07265067
0002b0 66 d0 1a 3e 91 cc 68 3c bd d7 2b be ec 31 aa bc
       0.1511856 0.014208929 -0.16781516 -0.020775758
0002c0 e2 62 cc bc 46 04 00 bd 2a 13 c6 3d 25 4b 06 be
       -0.024949495 -0.031254075 0.09671624 -0.13114603
0002d0 65 45 01 be f2 df f0 3b 3d 9b 41 3e 36 ff 18 be
       -0.12624128 0.007350915 0.18906875 -0.14941105
0002e0 1e e4 95 3d 8b af d3 3c 39 3e 9d 3d a0 2e 09 bc
       0.073189005 0.025840541 0.07677884 -0.008372933
0002f0 03 66 ce 3d 89 1f 96 bd cb ba 75 3d ea 26 8e bd
       0.10078051 -0.073302336 0.059992593 -0.06941016
000300 48 95 1a be 65 8e a8 3d c5 0a 54 3e b7 c0 a0 3a
       -0.15096009 0.082302846 0.20707233 0.0012264465
000310 0b 37 c1 3d 60 c8 b1 bd 67 4b 7d 3d 92 47 b9 3d
       0.09434327 -0.086807966 0.061839487 0.09046854
000320 ca db 6e bd 19 d0 e6 bc 42 d6 b7 3d 9b 32 1b 3c
       -0.058315076 -0.0281754 0.08976413 0.0094725145
000330 c8 69 d9 bd 61 c9 3c be f1 61 06 3a 33 67 c3 3c
       -0.10615879 -0.18436195 0.0005126289 0.02385292
000340 e1 2f 44 be 31 74 a6 3d 16 a5 29 bc b3 97 8c bd
       -0.1915889 0.081276305 -0.010354301 -0.06864872
000350 b3 d9 5a 3d c7 e0 40 3e 78 03 60 be 56 a6 4c 3e
       0.05343027 0.18835746 -0.21876323 0.19985327
000360 a6 21 cb 3a 6f bb 24 3e ef dd 70 be e8 4d 4e bd
       0.0015497699 0.16087125 -0.23522161 -0.050367266
000370 a7 0d 51 bc 7a e7 b6 3d 57 0b af bd c9 da 48 be
       -0.012759603 0.089308694 -0.08547085 -0.1961471
000380 38 8c a6 3d cd 7a d6 bc fe 43 53 3e bd 15 ab bd
       0.08132213 -0.026181603 0.20631406 -0.083537556
000390 4c ca 71 3e 9f d1 07 be 38 3c 73 be 0b 0b 8f bd
       0.23612326 -0.13263558 -0.2375344 -0.06984528
0003a0 39 4b 9b 3c 80 81 d2 bd 40 e0 a3 bd 4d 30 ed bd
       0.018956767 -0.102786064 -0.08001757 -0.11581478
0003b0 81 1b 83 bc e3 96 22 3d d9 ef cc 3c 5e 06 69 bc
       -0.016004326 0.039694678 0.025016712 -0.014222709
0003c0 3a ea 5b be 3b cf 36 3d 06 bb cc bd be 0b 71 be
       -0.21476069 0.044631224 -0.099966094 -0.23539636
0003d0 23 f8 95 bd ec 6c 3b 3e 15 d1 93 bc 0a 90 70 3e
       -0.07322719 0.18303269 -0.018044034 0.23492447
0003e0 0f f9 1d be f8 91 b9 bb ee a4 7f 3c 00 f2 53 3e
       -0.1542704 -0.005663153 0.015603287 0.20697784
0003f0 dc 13 a4 bd c0 35 5d 3c 23 aa a2 3d a7 bc 64 be
       -0.080116004 0.0135015845 0.07942607 -0.2233759

rnn.bias_ih_l0 f4 [128]
000000 fb b2 91 3d cc 25 ef 3d 4e 29 37 3e 0a 8e ce bd
       0.07114216 0.11677131 0.1788685 -0.100856856
000010 fc 05 21 3e 17 a6 50 3d aa 33 05 3e be ab 2d 3e
       0.15724939 0.050939646 0.1300799 0.16960046
000020 92 d9 d3 3d f4 2d 80 bd ed 58 ef bd 58 29 2c bd
       0.103442326 -0.06258765 -0.11686883 -0.042031616
000030 b4 e1 28 3e 43 30 2c 3e 28 61 7a bb 98 3c 26 3e
       0.16492349 0.16815285 -0.0038204882 0.16234052
000040 e3 a6 c5 3d 30 a1 f7 3b c8 a1 d3 bd d8 c9 d1 3d
       0.09650972 0.007557057 -0.10333592 0.10243577
000050 76 07 b9 bc c9 bf e9 3d c0 04 37 be 29 c8 33 bd
       -0.022586565 0.11413533 -0.17872906 -0.04389206
000060 7e a1 c3 3d 77 2b c3 bd 8d 4f 30 3e 28 8a 75 3e
       0.095522866 -0.09529775 0.17217846 0.23978484
000070 7d 54 4b 3e 10 e2 64 3d 91 8d 2a 3e 61 5f 3e 3b
       0.19856448 0.055879653 0.16655566 0.002904855
000080 14 59 8c bd 79 f8 51 3d 55 76 14 bc 0c f9 8b 3d
       -0.06852928 0.051262353 -0.009061416 0.06834611
000090 b1 d9 9d 3d 69 9f fd 3d 8e 58 00 3e aa 6e a6 3c
       0.07707537 0.12383921 0.12533781 0.02031644
0000a0 e2 ef e7 bd 81 71 16 3e 70 3f 34 3e e1 a9 2f 3e
       -0.11325051 0.14691736 0.17602324 0.17154647
0000b0 ff 64 23 3e 07 f6 af 3d 82 e2 1f bd fd da 27 3e
       0.15956496 0.08591848 -0.039034374 0.16392131
0000c0 ba 6c fe bd 11 d9 2b 3e 98 32 c8 bc c7 1c 58 ba
       -0.12423082 0.16782023 -0.024438187 -0.0008244034
0000d0 81 0b a4 3c 26 df e6 3d 31 13 fd 3c b6 38 e4 bd
       0.020025017 0.11273031 0.03089294 -0.11143629
0000e0 17 33 ee 3d 3d cc ff 3d c2 2f dd bd 9c f2 99 3d
       0.11630838 0.12490127 -0.10800125 0.07516977
0000f0 f1 7f 67 3e 29 a6 eb 3d f4 37 db 3b 9a 97 35 3e
       0.226074 0.11506302 0.0066900197 0.17733613
000100 c1 6b 2e be 65 5d 4b 3e 4e f7 4d 3d c6 6d 4b be
       -0.17033292 0.19859846 0.050284676 -0.19866094
000110 33 97 53 3e 27 96 5d 3d 2a a0 66 be c5 0d 6f 3e
       0.20663147 0.054098275 -0.22522035 0.23345096
000120 a0 ff 37 3e 72 9a e7 3c 0c e4 a2 bd 1d 8f de bd
       0.17968607 0.028271887 -0.07953653 -0.108671404
000130 63 84 24 3e fb 36 d7 3d a5 5b 1f 3e 7c 89 c0 bd
       0.16066127 0.105085336 0.15562303 -0.09401223
000140 ed d1 0c be a7 f4 f2 bd 8d 05 29 be f4 9f f5 bc
       -0.13751955 -0.1186307 -0.16506024 -0.029983498
000150 03 92 0d bc 88 50 fd 3d f1 44 92 bd 84 6b ab 3d
       -0.008640769 0.12368876 -0.07142056 0.08370116
000160 94 42 5e be 42 d0 1b 3e 59 8b cb bd 7b ac 4a bc
       -0.21705085 0.15216163 -0.09938688 -0.012370224
000170 b1 1d 5e be 33 00 5e be e8 de 28 3e 2f 58 b2 bd
       -0.21691014 -0.21679763 0.16491282 -0.08708226
000180 6d fa ae 3d a2 b9 97 3d dd 23 6b bd 91 06 ed 3d
       0.08543859 0.074084535 -0.05740725 0.11573518
000190 14 72 02 bd c7 a8 c3 3d b1 f8 0f 3e 4c 86 32 3e
       -0.031847075 0.09553676 0.14059712 0.17434043
0001a0 70 2b 3c 3e fa a4 c4 3d 45 9d 64 3e 29 76 b2 3d
       0.18375945 0.09601779 0.22325619 0.087139435
0001b0 2e 4b b5 3d 99 e4 c1 3c cf d8 07 3e a3 7d 7c 3a
       0.0885223 0.023668574 0.132663 0.00096317584
0001c0 8f 6a ed bd 85 60 0d bd c4 64 28 3e 8b de 24 3d
       -0.1159259 -0.034515876 0.16444689 0.040251296
0001d0 10 73 19 3e 5f f2 e7 bd 7c 07 03 3e 3b b7 41 3e
       0.14985299 -0.113255255 0.12795824 0.18917553
0001e0 54 15 b4 3b 80 af 13 3e cf 76 1c 3e c6 c5 60 3c
       0.0054957066 0.14422417 0.15279697 0.013719028
0001f0 0c f4 91 bd 64 fb 86 bc bd 94 db 3d 7b c5 6c 3e
       -0.07126626 -0.016477294 0.10721729 0.23122208

rnn.bias_hh_l0 f4 [128]
000000 dd fd 70 3e 97 ab d1 bd e9 4d a2 bd 2b f7 63 3e
       0.23534341 -0.10237806 -0.079250164 0.22262256
000010 3c ba 89 bc 9f dc 05 be 7f 4b 6a bc 2d 6e ec bd
       -0.016812436 -0.13072442 -0.014300226 -0.11544452
000020 fb c5 c4 bc 4d eb 3f 3e fc d1 22 ba 4e 8a fa 3d
       -0.024020186 0.18742104 -0.00062110997 0.12233411
000030 67 c1 36 3e e4 dc a7 3d f2 02 8d 3d 72 ce 20 3e
       0.17847215 0.081964284 0.068853274 0.15703753
000040 e2 04 4a 3e 78 73 aa bd 17 ae d9 bd 5e c4 14 3e
       0.19728425 -0.08322805 -0.10628908 0.14528033
000050 0e ef 75 bd 12 cc 1a bd 7b 86 03 bd 6c 93 5d 3e
       -0.060042433 -0.037792273 -0.032110672 0.21638268
000060 a8 24 6d 3e 09 19 0b 3d 9c 20 5b bd 7d b3 08 3e
       0.23158514 0.033959422 -0.053497896 0.1334972
000070 26 22 3d 3e 61 87 b9 bd 2b 0b 13 3e 96 aa 1b 3d
       0.18470058 -0.090590246 0.14359729 0.03800448
000080 6a 09 53 ba 02 97 26 3e fd c6 f2 3c c0 8a 19 bc
       -0.0008050414 0.16268542 0.0296359 -0.0093714595
000090 9f 16 9e bd 45 49 a1 bd 6e 6d ab 3d 26 54 86 3c
       -0.077191584 -0.07875303 0.083704814 0.016397547
0000a0 40 df 1a 3e 00 99 5b 3e 5b e5 0d 3e fe c1 56 3d
       0.15124226 0.21445084 0.13857023 0.0524311
0000b0 26 8b 0d 3e 43 bd 56 bd eb 1f 19 3c d6 ab 60 3c
       0.13822612 -0.052426588 0.009345989 0.013712844
0000c0 76 2a 17 bc cd 93 1d 3e 65 15 0c 3d 82 57 b4 3d
       -0.009226432 0.15388413 0.03420009 0.08805753
0000d0 0f ff fb 3c 8a fb 56 3c d0 e3 2b be 0c 97 95 3c
       0.03076127 0.013121495 -0.16786122 0.018260501
0000e0 e5 2a 0a 3c 76 3e 2f 3e 21 ce 70 3d 21 5a 47 3e
       0.008433078 0.1711367 0.05879033 0.19467975
0000f0 c6 aa 9c 3c 1c f6 55 3e 1e 93 0e 3e df e4 9a bd
       0.0191244 0.20894665 0.13923308 -0.07563185
000100 3a 8b b0 bd fd 7c 99 3d 49 a7 92 3d 7d 52 d6 bd
       -0.08620305 0.07494543 0.07160813 -0.10464952
000110 6e 72 47 bd 8a 68 22 be c8 91 8e 3d 28 68 5e 3e
       -0.048693113 -0.15860191 0.06961399 0.2171942
000120 77 9c 10 3d ad 77 e8 bd dd 2b ae bd 31 42 a8 bc
       0.035305467 -0.11350951 -0.0850446 -0.020539375
000130 61 f7 60 3e 48 a6 17 be d7 a2 3a 3e 5b 1a 8b 3d
       0.21969368 -0.14809525 0.18226181 0.06792136
000140 8d 23 8b bc cc 67 a1 3c 4a 61 0c be 5f bf d5 bd
       -0.016984725 0.019702815 -0.13708988 -0.10436892
000150 c5 1c 4d be 8c 98 86 bd 5b 32 f1 bd ec 5b e9 3c
       -0.20030506 -0.06572065 -0.11777183 0.028486215
000160 b3 15 2a bd 9b 05 26 bd dc b3 47 be 58 78 2c 3e
       -0.0415246 -0.04053269 -0.19502205 0.16842782
000170 70 69 dd 3d 4c 8f 49 3c d4 c9 be 3d 79 11 39 be
       0.10811126 0.012302231 0.093158394 -0.18073072
000180 af ad 93 3d 41 40 25 3e 9c 29 87 3c 58 fe 5a 3d
       0.07210862 0.16137792 0.016499333 0.053465217
000190 40 8b a4 bb ea 24 d2 3d c4 9d b4 bd c3 b8 16 39
       -0.0050214827 0.10260947 -0.08819154 0.00014373944
0001a0 8d 92 9c 3d 2a da 34 bd 4a c5 8e 3d c5 6f 97 bd
       0.0764514 -0.04415337 0.06971224 -0.07394365
0001b0 7e 6d 50 3e e2 72 0d bc fc 73 ac 3c d8 71 e5 bb
       0.20354268 -0.008633347 0.0210514 -0.0070020966
0001c0 80 3c 33 bd 21 ab 2a bd 78 6a 3a 3b b8 a7 57 3d
       -0.04375887 -0.041667107 0.0028444808 0.052650183
0001d0 de 9f 5c 3e de a9 3f 3e 92 52 76 3d 04 0b c7 bd
       0.2154536 0.18717143 0.06013734 -0.09718898
0001e0 15 12 62 3d 01 bf d2 3d c3 ca 13 3e 56 c7 93 3d
       0.055193026 0.10290337 0.14432816 0.07215755
0001f0 0b 22 a3 bd 93 e3 8c 3d f9 f1 97 bd b3 2f 86 3d
       -0.079654776 0.06879344 -0.074191995 0.06552067

rnn.weight_ih_l1 f4 [128, 32]
000000 5b 8a 00 be b3 de 5e 3e 3f cb e5 3c cb 8c 95 3d
       -0.12552778 0.2176464 0.028051017 0.07302245
000010 3e 32 83 bd 11 61 73 bd db 99 43 be 22 6a 45 bd
       -0.06406067 -0.05941874 -0.1910166 -0.04819692
000020 65 44 1b 3e e5 6e 02 3b 45 cb 22 be 02 97 8f 3a
       0.15162809 0.0019902524 -0.15897854 0.0010955038
000030 9a 9c 20 3e 41 f9 e9 bd e5 5a 51 3e 37 5f 06 bd
       0.15684739 -0.114244945 0.2044483 -0.032805648
000040 5a c3 07 bd 78 e4 98 3d 09 7a 21 be 80 3b 26 bd
       -0.033145286 0.07465452 -0.15769209 -0.040584087
000050 94 c7 4c 3d 68 dd 41 bd 61 6b 9a bd 9f 6b db 3d
       0.04999502 -0.04733029 -0.07540012 0.107138865
000060 35 c7 de 3d 70 97 80 3d 25 70 b0 bd e3 29 78 3e
       0.108778395 0.062788844 -0.0861514 0.24234729
000070 8f d5 47 be d1 0f 64 3c 20 ef 32 3d ca f4 c0 3d
       -0.1951506 0.013919787 0.04368508 0.0942169
000080 e9 1e 3b 3d a7 d8 7e bd ca 76 4e 3e 43 f5 65 3d
       0.045683775 -0.062218335 0.20162502 0.056142103
000090 1e e5 bd bd a2 d2 40 3d 4f 23 07 3c 3f 9d 0b 3e
       -0.09272216 0.047075875 0.008248164 0.13634203
0000a0 c7 0f e4 bd 1a 2e bd bd a2 74 33 bd 24 18 6f 3d
       -0.11135822 -0.09237309 -0.0438124 0.05837263
0000b0 9b ce 39 3d a4 55 07 be d1 1c 00 be df 4a ff bd
       0.04536305 -0.13216263 -0.12510993 -0.124654524
0000c0 2c e5 f7 bd 6f 14 77 3d 31 2a c6 bc 23 35 a1 bd
       -0.12104258 0.06032222 -0.02419004 -0.07871463
0000d0 41 46 10 3e 80 95 41 3d cb 22 67 bd 0d 05 b8 3d
       0.140893 0.047261715 -0.056429666 0.08985338
0000e0 d6 00 04 bd 3b b5 59 3d 21 8b 16 be 6a 0a 0d 3e
       -0.03222736 0.05315135 -0.14701511 0.13773504
0000f0 77 2a 7d 3d 02 f0 ed bd 32 ca 17 3e 94 da fa bd
       0.061808076 -0.116180435 0.14823225 -0.12248722
000100 58 a4 76 be 2d aa 28 3e e1 e3 39 3d 6a 5f 4a 3c
       -0.2408613 0.16471167 0.045383338 0.01235185
000110 d3 51 58 3e f4 13 af bd 7a 45 e8 bd 96 a1 f6 3d
       0.21124963 -0.08548728 -0.113413766 0.12042539
000120 c9 82 58 3c 5a ff 27 bc 06 89 5c be 47 00 3e bd
       0.013214775 -0.010253752 -0.21536645 -0.046386983
000130 26 f5 07 3e f5 25 40 be 58 1e 80 bd 60 d7 84 bc
       0.1327711 -0.1876448 -0.062557876 -0.01621598
000140 7b 54 92 3d 09 e6 93 bd 50 e7 b6 3d 11 c4 c4 3c
       0.071450196 -0.0722161 0.08930838 0.024019273
000150 ee ba 49 bd 50 17 68 3e 9f db 97 3d c5 8b 24 3e
       -0.049250536 0.22665143 0.07414936 0.16068943
000160 5f 48 e9 bd 43 01 c3 bd 8e 5c 2e 3c 6b a6 41 3e
       -0.11390757 -0.09521725 0.010642184 0.1891114
000170 84 f0 52 bd fb dd b1 3d be 51 85 bb 90 4d ad 3d
       -0.051498905 0.086849175 -0.0040685823 0.084620595
000180 74 23 22 be f1 f7 ec bd 35 4a 93 bd 0e 86 59 be
       -0.15833837 -0.115707286 -0.07191888 -0.21242544
000190 34 1b 0a 3e 46 a1 44 3c ee 6a c3 3d c8 87 47 3d
       0.1348694 0.012001341 0.095418796 0.048713475
0001a0 d8 58 49 3d fc d9 17 be dc 28 76 bd 88 4d 1e 3d
       0.049156994 -0.14829248 -0.06009756 0.03864816
0001b0 c3 c4 fa 3c 98 d1 3e be 74 65 9a bd 38 ac 4e 3d
       0.030611401 -0.18634641 -0.07538882 0.05045721
0001c0 49 f7 cb 3d be 7c 60 be 7c 34 af bd ea 15 66 be
       0.09959275 -0.21922585 -0.085549325 -0.22469297
0001d0 ae 62 86 3d cd cb 01 be fa 01 c4 bd 20 c0 4e 3c
       0.065617904 -0.126754 -0.095706895 0.012619048
0001e0 13 6d 56 3d 6b ee b2 3d 44 d2 2a be d8 53 88 3c
       0.052350115 0.08736881 -0.16681772 0.016641542
0001f0 2d a6 1d be 84 0b 94 3c b2 1b 14 3e fe 7c 51 be
       -0.15395422 0.018071897 0.1446369 -0.20457837
000200 28 e6 35 3e f7 96 23 be 8e d7 84 bd e1 90 39 3e
       0.17763579 -0.15975557 -0.06486426 0.18121673
000210 94 ca a6 bd b1 7b ee bd 7b 20 9a 3c 23 44 f9 bd
       -0.081441075 -0.11644686 0.018814316 -0.12171199
000220 09 c0 10 3e b9 9d 2d bd 7b 44 10 3e b9 c5 e0 bd
       0.14135756 -0.042386744 0.14088623 -0.109752126
000230 12 9c 29 be 05 7d 15 3e 41 9a 18 3e 8d f2 e3 3d
       -0.16563442 0.14598472 0.14902593 0.11130247
000240 b8 4e 10 3e cb bc d3 bc 81 99 96 3d f6 41 fd bd
       0.14092529 -0.02584686 0.07353497 -0.12366097
000250 65 63 25 3e a3 d8 e2 3d 51 3f 23 3e 63 cb 23 bd
       0.16151197 0.110764764 0.15942122 -0.039988887
000260 27 3e 1a be 63 1b 1e be ad e3 b4 3d 5c ec ff bd
       -0.15062772 -0.15440135 0.08832488 -0.12496254
000270 75 72 2b 3e fe 32 3f 3e 2d 4d 26 be ee b5 ea bd
       0.1674288 0.18671796 -0.16240378 -0.114604816
000280 ac 5a 12 3b 59 4b 3c 3e af ff 04 3e 3b 0f 01 be
       0.0022331877 0.18388118 0.1298816 -0.12603466
000290 ff 5f 31 3e bd 95 a6 bd 66 59 53 be 29 51 94 bd
       0.17321776 -0.08134029 -0.20639572 -0.072420426
0002a0 3e f4 1e bd 33 fb 25 bd ed 97 3d 3c 10 25 4c 3d
       -0.038807146 -0.040522765 0.011571866 0.049840033
0002b0 24 22 07 bd a5 f8 19 be ba e9 91 bd 30 5d 68 3e
       -0.032991543 -0.15036257 -0.07124658 0.22691798
0002c0 61 28 c6 3c 3b d1 72 be b4 68 92 3d 18 5a 80 bd
       0.024189176 -0.23712628 0.07148877 -0.06267184
0002d0 3c b3 e2 bd 73 f4 f5 3d 0f 30 be bc 00 9c 00 bd
       -0.110693425 0.120095156 -0.023216275 -0.031398773
0002e0 78 bd 39 be d0 2e 9c bc 40 ca b0 3d ba e3 57 3e
       -0.18138683 -0.01906529 0.08632326 0.21082965
0002f0 bb 7b c2 bd b7 7d 6d bd 80 5e 97 bd 46 b0 4e 3d
       -0.09496256 -0.05798122 -0.07391071 0.050461076
000300 76 07 c1 3c a7 80 21 3e 56 78 5d 3e cf c0 74 bc
       0.023563128 0.15771733 0.21627936 -0.014938547
000310 58 09 af 3d 7c 2d f3 3d 0a 1f 57 3c a6 84 24 3e
       0.08546704 0.1187391 0.013129959 0.16066226
000320 6b 33 a5 bd cc a9 ec bd 12 98 d9 3b 0c b3 1e be
       -0.08066448 -0.11555824 0.0066404426 -0.15497988
000330 28 dd cb bd 0a 1f 28 bd 7c 88 25 3e e5 b9 e7 3c
       -0.099542916 -0.041045226 0.16165346 0.028286884
000340 eb 8f 19 be f5 7d 1c 3d 92 b7 16 be 2f 4c e8 3d
       -0.14996307 0.03820606 -0.14718464 0.11342656
000350 94 57 95 bd ae 5d 98 3d cb 02 51 be 5a 1f 22 3e
       -0.07292095 0.07439743 -0.20411222 0.15832272
000360 2f e1 dc 3d 25 a8 6e 3b 85 9e bc bd f1 b7 b9 bc
       0.10785138 0.003641614 -0.09209923 -0.022670718
000370 28 a8 35 be 36 ba 42 bb 27 f4 b9 3d fb ad 1a bb
       -0.17739928 -0.002971304 0.090797715 -0.0023602236
000380 e4 75 8e bd a9 8e 17 bc 4a d7 b2 bd d6 91 df 3d
       -0.069560796 -0.009250321 -0.087324694 0.10916488
000390 08 b3 12 3e ec 28 90 bc 13 14 0e 3e 6c 8c 2d 3d
       0.14326108 -0.017597638 0.13874845 0.042370245
0003a0 18 82 19 bd dc ca b5 3d cc 1c 98 3d d7 3b 37 3d
       -0.037477583 0.08876583 0.074273676 0.044734802
0003b0 24 4c 8f 3d 0c 64 b4 3d f8 79 04 be ea 4c 82 bd
       0.069969445 0.08808145 -0.12937152 -0.063623264
0003c0 4f 17 44 3e 3c ca 8b bd 01 b9 4a bc ba 68 81 bd
       0.19149517 -0.068256825 -0.01237321 -0.06318803
0003d0 9e 6c fe bd 10 57 c7 3d 55 4f 1b be 59 d2 8e 3d
       -0.12423061 0.09733403 -0.15166982 0.069737144
0003e0 af 7c f6 3d d9 46 4f bd 9a 59 33 bd bc 6e 09 3e
       0.120355 -0.050604675 -0.043786623 0.13421148
0003f0 cd 57 e3 3d e2 f3 77 3d b9 36 14 be 89 3f 81 bd
       0.11100731 0.06053532 -0.14474 -0.063109465

rnn.weight_hh_l1 f4 [128, 32]
000000 0b d5 49 3e 1b 5e 0f 3e f0 ef bd 3d 0d 95 e2 bd
       0.19710176 0.14000742 0.0927428 -0.110635854
000010 e3 dd 0f bd 6a a6 be bc e8 95 52 3e a6 5e e1 bd
       -0.035123717 -0.023272712 0.20564997 -0.11004381
000020 02 92 fb bd f2 8c aa 3d a6 25 47 be 9b 49 6d bd
       -0.12283708 0.083276644 -0.19447955 -0.057931524
000030 e4 fe b4 bd a8 47 af bd 1a 61 d9 3d 2f 01 31 be
       -0.08837679 -0.08558589 0.10614224 -0.17285608
000040 62 fc 93 3d 76 c5 63 3d 44 5c 88 bd 50 2c f7 bc
       0.072258726 0.055608235 -0.06658223 -0.030172497
000050 d0 5f 0e 3e f5 01 b7 3c 96 f2 90 bd 9e 1a ce 3d
       0.13903737 0.0223398 -0.070775196 0.100636706
000060 d9 34 50 3e c9 5e e9 bc 42 ad 26 3e 32 ed 50 3d
       0.2033266 -0.02848758 0.1627703 0.051007457
000070 a0 6a 1b be 8b 31 47 be e1 f5 c5 3c d3 65 5b 3e
       -0.15177393 -0.19452493 0.024165096 0.21425562
000080 f7 9b 45 3e 4e 75 a1 3c ab 6c 54 3c 7a fc 6f 3d
       0.19297777 0.019709256 0.012965362 0.05859039
000090 87 ce 5c 3d 3a ef 04 be 61 94 01 3d a1 2f b6 bd
       0.053907897 -0.12981883 0.031635646 -0.08895803
0000a0 c8 65 a4 3d d7 7a 8a 3c 45 72 87 3d 27 92 e2 bd
       0.08027226 0.016904278 0.06613592 -0.110630326
0000b0 97 b3 bc bd 04 d1 12 bd 3f dc fc 3d 6f f6 d1 3d
       -0.092139415 -0.035843864 0.12346696 0.102520816
0000c0 90 a7 16 be d4 c3 65 bd 49 24 c4 bd 89 45 30 bc
       -0.14712358 -0.05609496 -0.09577233 -0.010758766
0000d0 70 c0 8c bd 69 0a 2d bc e8 70 b2 3d cc cc 81 3c
       -0.06872642 -0.010561564 0.087129414 0.015844725
0000e0 99 e6 28 3e 02 af e3 3d 17 de 8d bd f4 77 1a 3e
       0.16494216 0.111173645 -0.06927126 0.15084821
0000f0 0b 94 39 be 88 f6 fa 3d 61 d0 2d bd af ea 06 ba
       -0.1812288 0.12254053 -0.042435054 -0.0005146665
000100 dc a6 02 3e ae 59 d3 3d 58 d3 27 be 40 bc 5e be
       0.12758964 0.103198394 -0.16389215 -0.21751499
000110 59 80 e6 3d e2 b3 9c 3c 4e 1c ac 3d 77 76 75 3d
       0.11254949 0.019128744 0.08403836 0.05992743
000120 68 57 3d 3e cb 6c 39 be 84 84 b6 3d c3 40 02 be
       0.18490374 -0.18107907 0.08911994 -0.12720017
000130 5d 96 3e be c3 b7 08 be 96 a0 16 be 2e 12 02 bd
       -0.18612047 -0.1335135 -0.14709696 -0.03175562
000140 2e 69 5f be b4 48 25 bd aa a7 be 3c 05 33 28 3c
       -0.21817467 -0.04035254 0.023273308 0.01026607
000150 a0 5c 67 bd 3a 79 52 3e bf 27 9e 3d 94 30 7a be
       -0.05648482 0.20554057 0.07722425 -0.24432594
000160 da f9 62 3c 26 ce 5e 3e 33 73 a7 bd cb d2 8f bd
       0.013853515 0.21758327 -0.081762694 -0.070226274
000170 48 8e d0 3d ed a9 9b 3d d4 5c 31 be c5 39 f1 3d
       0.10183388 0.0760077 -0.17320567 0.11778597
000180 e7 fa 8c bd 93 95 17 3d 60 59 ca bd e7 24 c2 3a
       -0.06883793 0.03700788 -0.09880328 0.0014812023
000190 82 81 9a bd 8d 88 08 3d a3 61 cd 3d d8 37 35 3e
       -0.07544233 0.03333335 0.10028388 0.17697084
0001a0 19 46 0c 3e 58 39 33 be 36 42 94 3d 12 f7 b8 3d
       0.13698615 -0.17502344 0.07239191 0.090315
0001b0 09 7e 91 3c b6 d2 38 3d 2f ea dc 3c bb c3 22 be
       0.017760294 0.045122825 0.026967136 -0.15894978
0001c0 44 a8 5e be ec c5 a8 bd b6 48 ec bd 4e 5c 00 3e
       -0.21743876 -0.082408756 -0.11537306 0.12535211
0001d0 7b 5f ae bd b3 7e 57 3e e8 13 fa 3c 01 74 09 3e
       -0.08514305 0.21044426 0.03052707 0.13423158
0001e0 e6 b5 19 3e 29 77 d0 3d 16 b1 c3 bd 53 a3 06 3e
       0.15010795 0.10178978 -0.09555261 0.13148241
0001f0 6d ff b6 bd ec ec 93 3d c9 c1 40 be ef 34 40 3e
       -0.08935437 0.07222924 -0.18823923 0.18770193
000200 8b d3 77 bd 5c c3 e9 bd 17 77 d5 3d d3 13 1a 3e
       -0.060504477 -0.11414215 0.10423105 0.15046625
000210 81 89 7d bd 8c dc f2 bc ff 39 35 be 44 4b 82 bd
       -0.061898712 -0.02964618 -0.17697905 -0.06362012
000220 c2 26 ea bd c1 13 3d 3d 75 8e 55 bd 85 fe ac bd
       -0.11433174 0.046161417 -0.05213781 -0.08446983
000230 4c 1e b8 3d 5f fe 17 3e 53 a5 b9 bd 48 51 92 bc
       0.08990154 0.14843129 -0.09064736 -0.017861024
000240 bc e1 fe bd 0e 0e 9a 3d 24 c1 b2 3c 5e 5e cd bd
       -0.12445399 0.07522212 0.021820612 -0.10027765
000250 a1 45 17 bd e9 88 43 be ce 82 fb 3d ac 64 fa bd
       -0.036931638 -0.19095196 0.122808084 -0.12226233
000260 f1 f3 0e be 90 cd f7 3d 87 48 a0 bd 8a 22 ce 3c
       -0.13960244 0.12099755 -0.078263335 0.025162954
000270 2b 8f 0b be 66 04 70 bd 7d e9 b1 3d 59 42 80 3d
       -0.13628833 -0.058597945 0.086871125 0.06262655
000280 60 ca f8 bc 5b e3 10 be a2 10 8b bc 39 70 63 be
       -0.030369937 -0.14149229 -0.016975705 -0.22210778
000290 20 5b 9d bd 41 33 8e bd a8 2c 51 3e 2f 59 2e 3e
       -0.07683396 -0.0694337 0.20427191 0.17026208
0002a0 36 73 64 3d 6c 74 cd 3b 70 58 de 39 c9 6b c4 bd
       0.055773936 0.006269982 0.0004240903 -0.09590871
0002b0 77 8d f6 bd d1 f0 15 3c d6 99 01 be 2e 68 2a be
       -0.12038701 0.009151653 -0.1265634 -0.16641304
0002c0 cf c1 c4 bd 11 e6 35 3e d1 77 a1 bd a5 bd 2d bd
       -0.096072786 0.17763545 -0.07884181 -0.042417187
0002d0 24 d6 a5 3c 33 d1 ed 3d 85 b7 0a 3e e5 a3 4b be
       0.020243712 0.11612167 0.1354657 -0.1988674
0002e0 52 f1 db bd 99 15 00 3e 9b 57 95 3d d6 8b 27 3d
       -0.107393876 0.12508239 0.072921 0.040904842
0002f0 0f ff 37 be f8 6b b6 bd e8 44 3a be 3f f5 42 3e
       -0.17968391 -0.08907312 -0.18190348 0.19038866
000300 bf e7 1d 3e 09 c0 1f be 7c 3e ed bd 81 05 c5 3d
       0.15420435 -0.156006 -0.115841836 0.096201904
000310 66 07 bd 3d bc 8d ed 3b b4 8e b5 bd b5 8d e9 3d
       0.09229927 0.007249562 -0.08865109 0.114039816
000320 21 22 1a be d0 6d 01 be aa 53 0c be d6 2d 77 3d
       -0.15052082 -0.12639546 -0.1370379 0.060346447
000330 66 27 12 be f2 dc f3 bd 7a c3 b5 3c a7 0f 17 be
       -0.14272842 -0.11907376 0.022187937 -0.14752065
000340 2e 7c 14 be a5 a2 8e 3d 4a 04 a6 3c 06 b6 b1 3d
       -0.14500496 0.06964616 0.020265717 0.08677296
000350 55 96 92 bd d7 34 a2 bd 94 3f 0b 3e 62 3b 99 3d
       -0.0715758 -0.07920235 0.13598472 0.074820295
000360 70 b1 a9 bd 47 a6 4d 3e 57 0e 60 3e 93 56 cb bd
       -0.08285797 0.20082961 0.2188047 -0.09928622
000370 77 f0 fd 3d 10 d3 7e bd 9f 80 3a bd c5 99 4d 3e
       0.12399381 -0.062213004 -0.04553282 0.2007819
000380 a9 b0 2c bd 00 20 e4 3d 1e 54 7a 3d b4 e7 05 be
       -0.042160664 0.11138916 0.061115377 -0.13076669
000390 8d 87 c8 3d b3 88 d4 3c c8 9e 19 be 5a f4 d8 bd
       0.09791479 0.02594409 -0.15001976 -0.10593481
0003a0 ea ee 06 3e 7f 1f c1 3d 1b d2 36 3e 67 7f db bd
       0.13177076 0.094298355 0.17853586 -0.107176594
0003b0 9c d1 31 3d 7d a5 84 bd 62 72 8b bd c0 12 61 bd
       0.04341279 -0.06476877 -0.06808926 -0.054949522
0003c0 c0 3f c2 3d 9d ab c7 bd af 20 80 3c 3f a2 3b be
       0.094848156 -0.097495295 0.015640585 -0.1832361
0003d0 b7 fb be 3d e2 26 b2 bc 38 3d c5 bd f1 3f 08 3e
       0.093253545 -0.021747056 -0.09630817 0.13305642
0003e0 56 33 29 be 24 49 33 bc 32 b8 1b be 7a a3 ac 3d
       -0.1652349 -0.010942731 -0.15206984 0.08429618
0003f0 0c 92 1d be 31 2a 16 be 9b d6 29 3e 8d 1f b4 3d
       -0.15387744 -0.14664532 0.16585772 0.0879508

rnn.bias_ih_l1 f4 [128]
000000 74 ea 29 3e 4c a8 2e bd a9 b1 5e 3e a8 4c 39 3e
       0.16593343 -0.04264097 0.2174746 0.18095648
000010 ce 77 bd 3d eb 90 52 3e 53 1b ae 3c 91 22 19 3e
       0.092513666 0.20563094 0.021253264 0.14954592
000020 1a 14 28 3c e7 c6 83 3d 56 f3 be bd b9 c3 bb 3d
       0.010258699 0.06434422 -0.093237564 0.091681905
000030 e4 c0 46 3e e2 6e 8b bd c0 85 4e bd d1 ef 30 3e
       0.1940952 -0.068082586 -0.050420523 0.17278983
000040 1f d0 07 3e 88 a6 24 3e b1 d5 92 bd a4 ae a8 3d
       0.13262986 0.16079152 -0.07169665 0.08236435
000050 58 66 ba 3d 2f a7 eb 3d d1 91 20 3e 96 10 0e 3e
       0.09101552 0.11506497 0.15680625 0.13873515
000060 38 5b 1d 3e 0d 8a 3f 3e 50 68 66 3e 3d 49 7f 3d
       0.15366828 0.18705006 0.2250073 0.062325705
000070 7a db 54 3e 9a 2f 69 3e 21 65 1b 3e 31 ef 3d 3e
       0.20786849 0.22772065 0.15175296 0.18548276
000080 c4 b0 6d 3d b9 30 1c bd 98 f6 00 ba f7 2f b3 3d
       0.058029905 -0.038132403 -0.0004919558 0.08749383
000090 6e db 20 be 44 57 c4 3a 40 17 16 3e 26 a5 e1 bd
       -0.15708706 0.001497962 0.14657307 -0.11017828
0000a0 c7 17 f3 bd 60 79 28 be 35 1a 12 3d a6 28 0f bd
       -0.118697695 -0.16452551 0.035669524 -0.034950875
0000b0 fe d1 9d bc ce 9d d2 bd a6 d0 0a be 71 79 06 3d
       -0.019265171 -0.10284005 -0.13556156 0.03283066
0000c0 d2 ab 8a 3b f5 22 19 bc 39 f6 59 3d 40 1b 8b 3d
       0.0042319084 -0.009346713 0.05321333 0.06792307
0000d0 21 fb 13 3e 8e cd de bd 5e be 16 3e fc d0 74 bd
       0.14451267 -0.1087905 0.14721057 -0.059769616
0000e0 e3 b2 a2 bd b2 45 52 3e f4 76 56 3e d5 e9 53 3e
       -0.07944276 0.20534399 0.20943815 0.20694669
0000f0 d3 81 b0 3d 24 fe 2f 3e f8 bb c1 3d 2c 9e 87 bd
       0.08618512 0.1718679 0.0945968 -0.06621966
000100 f7 04 55 3e 2c 1d 62 3c cf d4 44 be db 3f 23 3d
       0.20802675 0.0138009 -0.19221805 0.03985582
000110 fe a8 ee bd 4f 82 2a be 6b 66 57 3e 54 40 17 3e
       -0.116533265 -0.16651271 0.21035163 0.14770633
000120 e6 8a e6 3d 07 44 74 bd 7f 57 17 be f4 d4 92 3c
       0.112569615 -0.05963519 -0.14779471 0.01792381
000130 50 dd 6e bd 2d 78 01 be 6e 51 80 bd 0d ee 44 be
       -0.05831653 -0.126435 -0.062655315 -0.19231434
000140 d7 06 6b be c3 79 da 3d 1c 64 9b bd d3 aa 48 3e
       -0.22951828 0.106677555 -0.07587454 0.19596414
000150 8a bb 1e bd fd 02 22 3e 0f 70 41 3e cf 8d 53 be
       -0.03875307 0.15821452 0.18890403 -0.20659564
000160 e4 f1 b0 3d 6d 72 5a 3e 21 fe 2e 3e 7d f2 a7 3d
       0.08639887 0.21332712 0.1708913 0.08200548
000170 b4 d8 58 be f6 a0 11 be ad bd 1d be 9a 51 39 3e
       -0.21176416 -0.14221558 -0.15404387 0.18097535
000180 e6 f0 66 3c aa af fd bb 8f 6d 62 3d 3c 71 86 3d
       0.014095521 -0.007741888 0.055280264 0.065645665
000190 7a a1 fb bd 73 c6 d4 bb 2c fd 1b 3e ce 4d 21 bd
       -0.122866586 -0.0064933836 0.15233296 -0.03938084
0001a0 55 d7 9c 3d c7 90 d5 bc 5d 07 99 bc c6 ce 92 3c
       0.07658259 -0.026070012 -0.018680269 0.017920863
0001b0 06 e9 8b bd 44 a3 02 3c 3b 42 b4 bd 61 f9 81 3d
       -0.06831555 0.007973496 -0.08801695 0.063463934
0001c0 3b 99 8b bd 03 dc 72 3d db b6 08 be ec cc 3f 3e
       -0.06816336 0.05929185 -0.13351004 0.18730515
0001d0 1f 7f e7 3d dc 42 4c bc 1f 5e b0 3d 3a d4 c2 3d
       0.11303543 -0.012467112 0.08611702 0.09513135
0001e0 a7 b5 14 be a2 a6 27 3e bd fc 51 3e aa c4 ce bd
       -0.1452242 0.16372159 0.20506568 -0.100961044
0001f0 98 ae de 3d ad 32 d8 3d 1f 7f 8e bd b2 fb 5a 3e
       0.10873145 0.10556541 -0.0695784 0.21385077

rnn.bias_hh_l1 f4 [128]
000000 77 51 ff 3c 7f fd c0 bd 11 3d 16 bd 6c f9 a6 bd
       0.031166775 -0.094233505 -0.03667933 -0.08153042
000010 3a be b7 3d 5a 89 f3 bd e8 a7 c9 bd 80 d7 0b bd
       0.0897183 -0.11891432 -0.09846479 -0.034141064
000020 8b ad d9 bd 66 ed 18 3e 7a 0b 0d 3e a5 ed d4 3d
       -0.10628804 0.1493431 0.13773909 0.103968896
000030 01 fa 3b 3d 15 52 1a 3d de 03 f7 3b 04 bf db bd
       0.04589272 0.037675936 0.007538303 -0.10729793
000040 2b 98 1b bd b9 78 2f bd 45 d8 22 3e ea 79 19 3e
       -0.037986916 -0.04283974 0.15902813 0.14987913
000050 70 a4 27 be 48 a3 39 3b 65 97 df bd 0f 32 0a bc
       -0.16371322 0.0028326083 -0.10917548 -0.008434786
000060 0f ca 92 bd e6 17 cb 3d d5 1d b3 bd a4 8e bb bc
       -0.07167446 0.09916668 -0.087459244 -0.022895165
000070 b2 04 bb 3d 3c 27 f2 3d 1e 90 45 3d c5 1b ec bd
       0.09131755 0.118238896 0.048233144 -0.11528734
000080 a6 e7 67 3d 12 d7 8d 3d 7c 11 9e bd 66 e9 13 3d
       0.0566174 0.06925787 -0.07718179 0.036111258
000090 ae 0b 46 3d fb 11 e4 bd e0 5d 41 3e 13 79 1c be
       0.048350982 -0.11136242 0.18883467 -0.15280561
0000a0 bf 44 57 3d 47 88 14 3e 1a 85 d6 bc 5a 9c 12 3e
       0.052555796 0.1450511 -0.026186515 0.14317456
0000b0 4e 63 0d 3e 53 33 de 3d 9e 2e 07 be b8 50 ae bc
       0.13807413 0.10849633 -0.13201377 -0.021278724
0000c0 ce b2 46 3e f4 c2 09 3e a6 32 7b 3d 99 58 34 3e
       0.19404146 0.13453275 0.0613276 0.17611922
0000d0 e8 20 14 be b7 87 e5 bc 84 85 0f 3e c3 d9 b4 3d
       -0.14465678 -0.028018815 0.14015776 0.08830597
0000e0 65 00 48 be 36 59 02 3c d3 f1 52 3e 5f e8 e0 3d
       -0.195314 0.00795584 0.20600061 0.10981821
0000f0 2a 8e f5 3d 73 bd 11 3e de 7a 06 bd 8c ba 3e 3e
       0.11990006 0.14232425 -0.03283202 0.1862585
000100 93 25 ec bd 7e 21 19 be fd 5b 26 3b 11 31 54 bd
       -0.11530604 -0.14954183 0.002538442 -0.051804606
000110 1c 5a c9 3c 6a 67 bf 39 78 f7 49 3d 46 da e9 3d
       0.0245791 0.00036507408 0.04930827 0.114185855
000120 fd 65 0b bd 93 78 e0 bd a5 47 fa bd 01 59 11 be
       -0.03403281 -0.10960498 -0.12220696 -0.14194109
000130 0b df 56 be 1e fd 0a be eb 5a 27 bc c5 21 0b be
       -0.20983522 -0.13573119 -0.010214548 -0.13587101
000140 d8 82 d1 3c d8 11 bc bd 0b 48 84 3d 35 ac 19 3e
       0.025575086 -0.09183091 0.064590536 0.15007098
000150 f0 cb 67 3d 43 93 56 bc a9 48 06 bc b2 e7 3b bd
       0.056590974 -0.013096633 -0.0081960345 -0.04587526
000160 32 2c 17 3e ba 2e 40 3d 20 c0 29 bd a5 9c 2e 3d
       0.14762953 0.046919562 -0.04144299 0.042629857
000170 f5 30 06 3e 86 99 a6 bd 80 94 ce bd a9 46 24 3e
       0.13104613 -0.08134751 -0.10086918 0.1604258
000180 dd 0a 31 3e 41 e6 b6 bc 35 1e b4 bd b8 64 ee 3c
       0.172893 -0.02232659 -0.08794824 0.02910076
000190 ec a0 1a bd b9 3b 52 bd cd c4 08 be 38 65 f6 bd
       -0.037751123 -0.051326487 -0.13356324 -0.12031025
0001a0 a3 7c ca 3d 8f fe 37 bc 20 96 ef 3d 1b 07 9e bd
       0.09887054 -0.011230125 0.11698556 -0.07716199
0001b0 12 85 64 bd b8 fd 41 be ee e2 e4 bd 03 a0 2d bb
       -0.05579097 -0.18944442 -0.11176096 -0.002649308
0001c0 2a c2 10 3e 33 25 73 3d 1c c2 87 3d 13 b1 b3 bc
       0.14136568 0.059361648 0.0662882 -0.021935022
0001d0 fc 6c e8 3c 40 09 07 3c cc 58 11 3e 08 81 02 3e
       0.02837228 0.008241951 0.1419403 0.12744534
0001e0 8e 72 08 be ca 21 ad 3d 84 00 d8 3d 2b fc d0 3d
       -0.13324949 0.084537104 0.10546973 0.10204347
0001f0 0c f0 a9 3d 14 26 08 3e 0a b3 e5 bd ae 44 2d 3e
       0.082977384 0.13295776 -0.112157896 0.1692073

linear.weight f4 [1, 32]
000000 4e 14 35 3e f9 2b 4b 3d c3 49 91 bd 45 b9 36 be
       0.17683527 0.049602482 -0.07094147 -0.17844112
000010 e8 5f 8e 3d c1 7c 59 be dc 3a 2e 3e 93 57 d5 bd
       0.069518864 -0.21238996 0.1701464 -0.10417094
000020 72 14 a3 bc 73 c5 0d 3e bf 71 00 bd 4d 66 1b 3e
       -0.01990721 0.13844852 -0.031358477 0.15175743
000030 f4 80 de bd 15 0e 48 3c 20 ce 1c 3e cc f1 05 be
       -0.108644396 0.012210389 0.15313005 -0.1308052
000040 c9 c3 3a bd 95 5b c9 bd 21 17 1c 3e d8 38 07 3e
       -0.04559687 -0.09831921 0.15243198 0.13205278
000050 00 70 88 bd 98 0e 57 3e eb bc 11 3e 0a c0 4b be
       -0.06661987 0.21001661 0.14232223 -0.19897476
000060 eb b2 f4 bd 35 89 23 3e fc 48 36 3e f7 0c 66 3e
       -0.119481884 0.15970309 0.17801279 0.22465883
000070 29 32 06 be e9 c7 3b bd 0d b5 a5 bd 06 ca 5e 3d
       -0.13105072 -0.045844946 -0.08091173 0.054391883
